model_cnn.pth (torch, 435171 bytes, 8 tensors)

conv1.weight f4 [6, 3, 5, 5]
-0.014065814 0.023251174 0.036968186 0.047005877 -0.022003805 -0.1180477 0.0029041544 -0.07854716
0.08575258 0.11844242 0.074206166 0.24729195 0.18876123 0.10291589 0.08199088 -0.091158904
-0.17071475 0.010088386 -0.14140084 -0.24037805 -0.006317247 0.038381346 -0.1617509 -0.21707933
0.06830375 0.038156603 0.02616691 0.042379886 -0.1411528 0.06395024 -0.09024068 0.025828743
0.013407934 0.09247498 0.03753431 0.19260481 0.26132664 0.22505222 0.13651039 -0.011499746
0.13545361 -0.17141326 -0.02962716 -0.17187929 -0.21597488 0.009729289 -0.075684465 -0.18003759
-0.19783732 -0.027433677 -0.0076196287 0.021611812 -0.12628065 -0.041590936 -0.024938766 -0.11357793
-0.048189588 0.052003287 0.12889011 0.011809118 0.20198469 0.16907062 0.028099803 0.20155354
-0.04307483 -0.0750265 -0.1091246 -0.09504808 -0.12099916 -0.012812056 -0.077126205 -0.029727058
-0.077699155 -0.03846049 0.22351193 -0.12725677 -0.1409148 -0.06409127 -0.04399062 0.079751335
0.066977836 -0.06338048 0.10133899 0.0785166 0.000688823 -0.027875574 0.12846255 -0.017549433
0.09008269 0.09636497 -0.0026823182 -0.021155624 0.10861633 0.08547735 0.021813676 0.053986635
0.005028006 -0.032572817 0.028754583 0.08580997 -0.16615444 -0.06943954 0.062284306 0.15564969
0.13102785 -0.1375909 0.099020086 0.014519565 0.12207555 0.038894076 -0.024909122 0.09969659
0.14454961 -0.038616646 0.113057174 0.049899247 0.08891998 -0.030023992 0.044132855 0.10150211
-0.009835193 0.0117222015 -0.015322197 -0.004323375 0.046292607 -0.0009155602 -0.115228415 -0.036865637
0.079642095 0.056053277 -0.08130703 -0.04587021 0.09576568 0.035663087 -0.011960495 0.051197898
0.030164573 0.023148457 0.030249938 -0.016269743 -0.096575476 -0.007712352 -0.01943138 -0.00264602
-0.1171941 -0.11581432 -0.06417553 0.015929168 0.0695838 -0.07541062 0.039533023 -0.034180846
-0.0438359 -0.0039629964 0.017352518 0.019593503 -0.0021246674 -0.14483573 -0.027548289 -0.0068259058
0.10866581 -0.0014309416 -0.19465677 -0.009869221 0.09892571 -0.041417133 -0.04030455 -0.18446411
0.031047488 0.13011815 0.11734873 0.12245315 -0.31816888 -0.024789276 0.078884505 0.08529365
-0.030704658 0.11531238 -0.028798623 -0.0013013291 0.11399834 -0.034523856 -0.099966705 -0.0032937136
0.11838157 0.006569635 0.21671106 -0.14728785 -0.051250372 0.18569314 0.13995643 0.16499391
-0.27801216 0.18486738 -0.012148522 0.13906601 0.23851757 -0.22280084 0.007511687 0.10787965
-0.053228088 -0.096244104 0.051093526 -0.107497774 -0.0068323496 0.083433665 -0.009794218 -0.049713306
-0.06400565 0.09061453 -0.06737825 0.097866744 -0.18184356 0.07515354 -0.07456544 -0.056146245
-0.041026603 -0.29477277 -0.034724638 0.06620254 0.09531421 0.13573617 -0.35164958 0.028969422
-0.045281466 0.11134555 -0.042723358 -0.16826205 -0.06596146 0.0657659 0.0021033832 0.045720898
0.0108579155 -0.1098569 0.03683883 -0.020866903 0.07918322 0.066175885 -0.025518285 -0.099738635
-0.050339382 0.09698567 -0.11093185 -0.1730098 0.06050484 -0.11065928 0.04376004 -0.10363719
-0.11296144 0.055449314 -0.07243523 0.033953846 -0.019648846 -0.074795865 0.039426282 0.038996436
00000000: 4d74 66bc 3f79 be3c f46b 173d 3c89 403d
00000010: 5341 b4bc fec2 f1bd a053 3e3b 55dd a0bd
00000020: 0c9f af3d f191 f23d 67f9 973d 1a3a 7d3e
00000030: a04a 413e 91c5 d23d d6ea a73d 85b1 babd
00000040: d9cf 2ebe c249 253c 62cb 10be aa25 76be
00000050: e900 cfbb c235 1d3d 07a2 25be 0b4a 5ebe
00000060: d6e2 8b3d 194a 1c3d fd5b d63c 8896 2d3d
00000070: 5c8a 10be 58f8 823d 1bd0 b8bd cd96 d33c
00000080: f4ac 5b3c 8663 bd3d 94bd 193d 323a 453e
00000090: 9bcc 853e 1774 663e 61c9 0b3e 6e69 3cbc
000000a0: 5ab4 0a3e f586 2fbe a8b4 f2bc 2001 30be
000000b0: 8528 5dbe 9967 1f3c 7500 9bbd c65b 38be
000000c0: de95 4abe 97bc e0bc 14ae f9bb 410b b13c
000000d0: b74f 01be 425b 2abd 624c ccbc 8c9b e8bd
000000e0: 7262 45bd 6601 553d c5fb 033e 087b 413c
000000f0: 13d5 4e3e d920 2d3e 8f31 e63c 0d64 4e3e
00000100: 3c6f 30bd 7ea7 99bd b87c dfbd 91a8 c2bd
00000110: 68ce f7bd a8e9 51bc 58f4 9dbd 2986 f3bc
00000120: bc20 9fbd bf88 1dbd 50e0 643e 994f 02be
00000130: f84b 10be 4942 83bd 822f 34bd ab54 a33d
00000140: ad2b 893d a0cd 81bd d18a cf3d 50cd a03d
00000150: 2192 343a 515b e4bc b08b 033e d4c3 8fbc
00000160: 467d b83d ff5a c53d d5c9 2fbb 8f4e adbc
00000170: 3d72 de3d c00e af3d 98b2 b23c 1721 5d3d
00000180: f9c1 a43b 136b 05bd bb8e eb3c 23bd af3d
00000190: 6424 2abe 5136 8ebd d41d 7f3d a262 1f3e
000001a0: 2a2c 063e a1e4 0cbe 0bcb ca3d 78e3 6d3c
000001b0: bf02 fa3d 654f 1f3d 370e ccbc ba2d cc3d
000001c0: d004 143e 7d2c 1ebd 858a e73d 2763 4c3d
000001d0: ae1b b63d e0f4 f5bc a7c4 343d 57e0 cf3d
000001e0: ca23 21bc 7a0e 403c f409 7bbc 19ab 8dbb
000001f0: 519d 3d3d 3402 70ba e0fc ebbd 6c00 17bd
00000200: 651b a33d 1f98 653d 4d84 a6bd 67e2 3bbd
00000210: cc20 c43d 7513 123d f4f5 43bc e3b4 513d
00000220: b21b f73c d5a1 bd3c b8ce f73c 2048 85bc
00000230: 5dc9 c5bd e6b7 fcbb 8f2e 9fbc d968 2dbb
00000240: 7603 f0bd 0f30 edbd 766e 83bd e37d 823c
00000250: f481 8e3d e270 9abd 61ed 213d 3701 0cbd
00000260: 468d 33bd 06dc 81bb de26 8e3c 8e82 a03c
00000270: 013e 0bbb d14f 14be f3ac e1bc d9ab dfbb
00000280: 2e8c de3d 6f8e bbba 1b54 47be 83b2 21bc
00000290: 9099 ca3d 03a5 29bd 6216 25bd 29e4 3cbe
000002a0: 4d57 fe3c b13d 053e 8854 f03d b8c8 fa3d
000002b0: 08e7 a2be e112 cbbc 338e a13d 70ae ae3d
000002c0: 5688 fbbc e628 ec3d 17eb ebbc 5c91 aaba
000002d0: f677 e93d e368 0dbd 58bb ccbd 58db 57bb
000002e0: 0972 f23d 1846 d73b 81e9 5d3e a0d2 16be
000002f0: e9eb 51bd 5826 3e3e bd50 0f3e 2af4 283e
00000300: 9c57 8ebe e04d 3d3e 980a 47bc 5267 0e3e
00000310: f33d 743e e725 64be 9924 f63b 02f0 dc3d
00000320: b205 5abd a11b c5bd 7247 513d cb27 dcbd
00000330: e7e1 dfbb 45df aa3d ed77 20bc 2ea0 4bbd
00000340: 6515 83bd 1c94 b93d 9cfd 89bd 5c6e c83d
00000350: 3335 3abe 19ea 993d c4b5 98bd 9bf9 65bd
00000360: 830b 28bd 75ec 96be 6c3b 0ebd 3395 873d
00000370: 1934 c33d 6cfe 0a3e 6a0b b4be 4851 ed3c
00000380: 0f79 39bd 2309 e43d b0fe 2ebd e34c 2cbe
00000390: cd16 87bd 46b0 863d ead8 093b d645 3b3d
000003a0: 66e5 313c a8fc e0bd 50e4 163d 11f1 aabc
000003b0: d02a a23d 3987 873d b90b d1bc c543 ccbd
000003c0: ab30 4ebd 6ca0 c63d 3d30 e3bd 7b29 31be
000003d0: ecd3 773d 55a1 e2bd ba3d 333d bc3f d4bd
000003e0: 5458 e7bd d21e 633d ec58 94bd 3013 0b3d
000003f0: 9ef6 a0bc 932e 99bd 747d 213d baba 1f3d

conv1.bias f4 [6]
-0.037046224 -0.18909304 0.07824214 -0.06020305 0.08541523 0.038509257
00000000: c8bd 17bd 9ba1 41be 6a3d a03d 7997 76bd
00000010: 2eee ae3d e2bb 1d3d

conv2.weight f4 [16, 6, 5, 5]
-0.117235556 -0.1415364 -0.29263586 -0.4662092 -0.36543238 -0.21214093 -0.24778959 -0.49990967
-0.6044078 -0.4058563 -0.28640273 -0.31858468 -0.33344746 -0.29408187 -0.36204273 -0.2894107
-0.2918753 -0.30297086 -0.27384353 -0.27673328 -0.0043679457 -0.08642581 -0.09611528 -0.15642804
-0.121951304 0.0505418 0.026983358 0.14307977 0.17178099 0.10982945 0.052020613 0.03441388
0.030295018 0.10739304 -0.026479224 0.05351319 -0.06766853 0.011280939 0.032838 -0.018003106
0.007905622 0.0016638284 -0.0040000007 -0.011271196 -0.10000207 -0.009600853 -0.015651874 -0.03385624
0.008328017 -0.0077252043 0.10328829 -0.04182172 -0.105209604 -0.09337818 -0.016233515 0.014502793
0.0009891174 -0.1572591 -0.20709722 -0.06304691 0.042926658 0.022290587 -0.13376005 -0.14360495
-0.10264048 0.014566892 0.06294528 0.0043841447 -0.0006748962 -0.08880331 -0.02329909 0.14078283
0.2630379 0.07839441 0.05504555 0.03896094 0.053575404 0.0040872335 0.05470132 -0.019353857
0.034020852 -0.01861751 -0.029384138 -0.040897533 0.044922333 0.15898232 0.020346431 0.0060607255
-0.08041406 -0.06657089 0.12758902 0.0416114 0.024753466 -0.12787007 0.018022304 0.004357503
0.09880289 -0.11927245 -0.038583882 -0.097088 0.012104681 -0.0022447451 0.048243586 0.08768523
0.06654842 -0.07566867 0.0122116655 -0.00025093238 0.014076463 -0.007962401 -0.08757334 -0.008171902
0.0019157283 -0.05656118 -0.045952912 -0.03362706 0.014089185 -0.05942145 -0.036863983 -0.04296585
0.0544964 0.12437589 -0.015492709 0.0061567184 0.0013496042 0.30093834 0.11803148 -0.12748665
-0.32283965 -0.2713208 0.24620754 -0.06291379 -0.3663913 -0.59108156 -0.4658588 0.2619791
0.0768347 -0.2581779 -0.39561316 -0.4106642 0.08290009 0.19134335 0.04564013 -0.11095575
-0.25143486 0.11446538 0.14043592 0.18851449 0.03697177 -0.098211475 0.09214092 0.15328807
0.3180657 0.0831206 0.19525726 0.15647633 0.11096619 -0.008357329 0.16444491 0.26539347
-0.22777736 0.17370266 0.4601575 0.3285551 -0.3185253 0.08231165 0.35709983 0.23588009
-0.28504714 -0.27790478 0.094831005 0.030249119 -0.17471309 -0.17040989 0.070881315 -0.014300111
-0.06766748 -0.12710364 -0.03621351 -0.06942693 0.028320404 -0.05951479 -0.0043858066 -0.024828784
-0.08068661 -0.00936212 0.014325615 0.12931232 0.018909618 -0.13274927 0.08741907 0.05077825
-0.0017158355 -0.08295257 0.13099842 0.032248393 -0.019978562 -0.07920259 0.11204154 0.23334803
-0.0737091 0.039903883 0.0237845 -0.020428378 -0.101548314 0.06348098 0.021443132 -0.016429575
0.0040918123 0.021867102 -0.057047192 -0.0050360104 -0.00019828681 -0.089957274 -0.043332424 -0.022747258
-0.10916646 -0.043094624 0.052739386 0.027125888 -0.030178616 0.04788061 -0.008376868 -0.037611872
0.08530446 0.04479247 -0.0017545983 -0.05773842 0.0042105564 -0.061143193 0.045435496 0.016233671
0.0015854571 -0.16241685 -0.037085738 0.010243547 -0.0950576 0.030208163 -0.003376813 -0.08263642
-0.008313939 -0.050356064 -0.07985811 -0.0921531 0.024971576 0.05427997 0.025429344 -0.008121556
0.122965746 0.09875505 0.06397534 -0.14898245 -0.10548672 0.05158705 -0.033389423 0.12457636
00000000: 3219 f0bd ebee 10be 5ed4 95be f9b2 eebe
00000010: f419 bbbe 793b 59be 8ebc 7dbe 29f4 ffbe
00000020: 78ba 1abf 66cc cfbe 61a3 92be 881d a3be
00000030: a0b9 aabe e691 96be aa5d b9be a42d 94be
00000040: ae70 95be ff1e 9bbe 3835 8cbe fcaf 8dbe
00000050: fc20 8fbb 0400 b1bd 17d8 c4bd ac2e 20be
00000060: 9bc1 f9bd eb04 4f3d 340c dd3c 8183 123e
00000070: 5be7 2f3e 43ee e03d 9113 553d 92f5 0c3d
00000080: 422d f83c e2f0 db3d f5ea d8bc a630 5b3d
00000090: cc95 8abd b0d3 383c 2481 063d 407b 93bc
000000a0: 9586 013c d114 da3a 7012 83bb d3aa 38bc
000000b0: e3cd ccbd e54c 1dbc 5c38 80bc d7ac 0abd
000000c0: 3c72 083c b623 fdbb d088 d33d 404d 2bbd
000000d0: 2278 d7bd 0f3d bfbd 26fc 84bc 1f9d 6d3c
000000e0: 46a5 813a 8808 21be 4b11 54be bd1e 81bd
000000f0: ddd3 2f3d c09a b63c 65f8 08be 2d0d 13be
00000100: 2c35 d2bd f9a9 6e3c 74e9 803d dfa8 8f3b
00000110: 84eb 30ba 83de b5bd bcdd bebc 6029 103e
00000120: e7ac 863e 408d a03d 7177 613d 8295 1f3d
00000130: e271 5b3d 33ee 853b 7e0e 603d fb8b 9ebc
00000140: 7359 0b3d c083 98bc 01b7 f0bc 2c84 27bd
00000150: 7b00 383d 43cc 223e 8fad a63c 0d99 c63b
00000160: 20b0 a4bd 5256 88bd b2a6 023e b770 2a3d
00000170: c8c7 ca3c 5ff0 02be 83a3 933c 62c9 8e3b
00000180: 2b59 ca3d 1d45 f4bd 220a 1ebd 13d6 c6bd
00000190: b652 463c 931c 13bb 119b 453d 5094 b33d
000001a0: 8a4a 883d 2df8 9abd 7013 483c 938f 83b9
000001b0: f7a0 663c bb74 02bc a759 b3bd 71e3 05bc
000001c0: 2d19 fb3a b2ac 67bd 1f39 3cbd 87bc 09bd
000001d0: 53d6 663c e863 73bd b0fe 16bd f6fc 2fbd
000001e0: 9e37 5f3d c9b8 fe3d 22d5 7dbc 4cbe c93b
000001f0: 34e5 b03a 9714 9a3e 7dba f13d dc8b 02be
00000200: 3d4b a5be 8fea 8abe d41d 7c3e f2d8 80bd
00000210: a497 bbbe 1f51 17bf 0b85 eebe 2022 863e
00000220: 835b 9d3d e52f 84be cf8d cabe 9442 d2be
00000230: 86c7 a93d 83ef 433e 25f1 3a3d c53c e3bd
00000240: 12bc 80be d36c ea3d 6fce 0f3e f109 413e
00000250: b66f 173d 1923 c9bd 61b4 bc3d 8cf7 1c3e
00000260: 82d9 a23e 223b aa3d 85f1 473e 553b 203e
00000270: 3e42 e33d 2eed 08bc 3f64 283e a7e1 873e
00000280: 783e 69be 1cdf 313e c499 eb3e 6038 a83e
00000290: c015 a3be 0393 a83d cad5 b63e 8d8a 713e
000002a0: b3f1 91be 8949 8ebe c236 c23d 00cd f73c
000002b0: fde7 32be ee7f 2ebe 392a 913d 034b 6abc
000002c0: 3f95 8abd 7527 02be 9e54 14bd b52f 8ebd
000002d0: 3100 e83c c8c5 73bd d0b6 8fbb bc65 cbbc
000002e0: 053f a5bd 9463 19bc fcb5 6a3c 736a 043e
000002f0: 58e8 9a3c 6def 07be c508 b33d dbfc 4f3d
00000300: e3e5 e0ba 09e3 a9bd 7324 063e e416 043d
00000310: 15aa a3bc f834 a2bd 0976 e53d c9f2 6e3e
00000320: ccf4 96bd 4172 233d b6d7 c23c 6a59 a7bc
00000330: 90f8 cfbd 5102 823d 82a9 af3c 5197 86bc
00000340: 9c14 863b a322 b33c 51aa 69bd 1e05 a5bb
00000350: 36eb 4fb9 853b b8bd 577d 31bd 7558 babc
00000360: aa92 dfbd fd83 30bd 4105 583d 1c37 de3c
00000370: 2539 f7bc 751e 443d 223f 09bc e80e 1abd
00000380: 1bb4 ae3d 4f78 373d 8dfa e5ba 1f7f 6cbd
00000390: b5f8 893b 4971 7abd 921a 3a3d 7afc 843c
000003a0: 1dcf cf3a 9a50 26be 37e7 17bd 8dd4 273c
000003b0: 8fad c2bd 1c77 f73c 854d 5dbb 493d a9bd
000003c0: 3037 08bc 2942 4ebd a68c a3bd c4ba bcbd
000003d0: 3191 cc3c ac54 5e3d 3351 d03c 4610 05bc
000003e0: 77d5 fb3d 1640 ca3d 8105 833d db8e 18be
000003f0: 6c09 d8bd f14c 533d 59c3 08bd e421 ff3d

conv2.bias f4 [16]
0.4314317 -0.13974926 0.020356337 0.3268682 0.18695384 -0.118941784 -0.1378734 0.30809677
0.07583137 -0.04940391 -0.2886377 -0.22997116 -0.12459779 -0.052686244 -0.29963273 0.012103801
00000000: 9ee4 dc3e 6e1a 0fbe 55c2 a63c 455b a73e
00000010: d470 3f3e c097 f3bd af2e 0dbe dcbe 9d3e
00000020: 7a4d 9b3d c15b 4abd 52c8 93be 8f7d 6bbe
00000030: 202d ffbd 88cd 57bd 7669 99be 054f 463c

fc1.weight f4 [256, 400]
-0.066826455 0.02197553 0.013948069 -0.10411519 -0.046655707 -0.02419269 -0.07996928 -0.0009558615
-0.038843453 -0.09673864 -0.046284508 -0.0122353695 -0.06310807 -0.054573864 -0.101624064 0.02862179
-0.0043635084 -0.014551193 -0.07689127 0.011388944 0.06165475 0.012842174 0.0070254197 -0.06732041
-0.064071834 -0.023187967 -0.016548542 -0.025829315 -0.027260106 -0.040895343 -0.09159115 -0.092736974
-0.05255007 0.015775673 0.021190984 -0.07583183 0.0360682 -0.014709795 -0.020147925 -0.021212952
-0.06460588 -0.108544 -0.03451085 -0.0153856315 -0.043150984 -0.08308318 -0.021746073 -0.09188437
0.03181523 -0.021655781 -0.052758094 -0.029930394 0.06814124 0.05420685 -0.028655384 0.0028063492
-0.04834482 0.010741304 -0.078058355 -0.019258989 -0.09848235 -0.0100757815 -0.016411105 -0.030069502
-0.023630636 -0.053337246 0.00035109892 -0.11183801 0.017280588 0.009030687 0.0059668003 -0.043566503
-0.060999583 -0.032089718 0.020144789 -0.033651374 -0.059146274 -0.0045572505 -0.013146757 -0.06412019
-0.08941232 -0.07807307 -0.052309778 -0.025278768 0.0016395942 -0.13614331 -0.0323379 -0.05679437
-0.05709014 0.022594947 -0.08867605 -0.012378297 -0.095259525 -0.03734233 -0.08287599 -0.11833015
-0.106383264 -0.07886249 -0.05940258 -0.028250204 -0.11345197 -0.08244245 0.013049894 -0.01450563
-0.044771783 -0.049111214 -0.04247189 -0.04986189 -0.015013084 0.0271841 -0.09167486 -0.09227055
-0.07683034 -0.080277614 -0.026513267 -0.06953162 -0.076864414 -0.0015960236 -0.051589113 -0.08889429
-0.08615264 -0.08793972 -0.050327297 -0.101499096 -0.09119029 0.007180169 0.0329708 -0.021053888
-0.07999505 -0.025030458 -0.017974671 0.011093114 0.010255107 -0.049613312 -0.114404045 -0.031332858
-0.034711156 -0.0480463 0.01922885 -0.019786257 0.018413626 0.03758471 -0.04121548 -0.0330021
-0.03841546 -0.010031396 0.0327868 0.007796106 0.098643355 0.040722337 -0.031130703 -0.061160628
0.006913148 0.04538257 -0.015469757 -0.01192265 -0.011039143 0.0753381 0.048573073 -0.056308888
-0.072771974 0.030503621 -0.061343335 -0.08232928 -0.09914942 -0.06984223 -0.06460095 -0.014823851
-0.060085416 -0.039236646 -0.08245442 0.020867923 -0.0036849075 -0.010917159 -0.05194535 -0.070833705
-0.03536166 0.020802513 -0.06965732 -0.06550447 -0.0450246 -0.055920314 -0.0017420826 -0.0028835095
-0.10552017 0.0005663152 -0.0011782204 -0.039120775 0.0005823373 -0.03392471 -0.03039567 0.06530029
-0.062538065 -0.05969832 -0.08555196 -0.10201253 -0.047329344 -0.09426479 -0.08767112 -0.043539472
-0.11929056 -0.029029662 -0.105238385 -0.04181773 -0.005360069 -0.08669164 -0.118201986 -0.034769267
-0.034821197 -0.060744934 -0.014607673 -0.015778622 -0.010072118 -0.0060064234 -0.06518876 -0.047266062
-0.036125626 -0.02326213 -0.00090474857 0.02091499 -0.03663215 -0.0907061 -0.102262415 -0.02484265
0.05028038 0.030555284 0.033451155 -0.052118085 0.015492403 0.036660142 -0.040425677 0.06343096
-0.047229853 -0.0070582055 0.028445654 -0.015322776 0.009687278 0.019019784 0.02748969 0.035904497
0.0014589989 0.042518314 -0.014267697 0.040882792 -0.014378664 0.006303662 0.03408747 0.04149
0.061160587 -0.047761347 0.07616572 -0.091677964 -0.049557254 -0.05740396 -0.005740014 0.08772214
00000000: 4fdc 88bd 0706 b43c 7186 643c 583a d5bd
00000010: 0e1a 3fbd c02f c6bc efc6 a3bd c892 7aba
00000020: 501a 1fbd e81e c6bd d394 3dbd dc76 48bc
00000030: ce3e 81bd d888 5fbd 4720 d0bd 3f78 ea3c
00000040: c3fb 8ebb 2168 6ebc 2c79 9dbd b298 3a3c
00000050: b189 7c3d fb67 523c 7e35 e63b 48df 89bd
00000060: 1838 83bd b1f4 bdbc cf90 87bc 0098 d3bc
00000070: 9650 dfbc e081 27bd 2494 bbbd e2ec bdbd
00000080: be3e 57bd fc3b 813c b798 ad3c b84d 9bbd
00000090: 40bc 133d 5a01 71bc 430d a5bc c9c6 adbc
000000a0: 1650 84bd 514c debd 405b 0dbd 0414 7cbc
000000b0: 16bf 30bd 8427 aabd d224 b2bc df2d bcbd
000000c0: b050 023d 7767 b1bc df18 58bd 9630 f5bc
000000d0: a28d 8b3d 0008 5e3d b2be eabc baea 373b
000000e0: 3805 46bd 4bfc 2f3c 0fdd 9fbd 07c5 9dbc
000000f0: 1db1 c9bd e414 25bc 9570 86bc 5154 f6bc
00000100: 0995 c1bc 2878 5abd b313 b839 540b e5bd
00000110: 0590 8d3c 72f5 133c 2685 c33b ca72 32bd
00000120: b3da 79bd 8270 03bd af06 a53c 06d6 09bd
00000130: 5d43 72bd fd54 95bb 7f65 57bc 7251 83bd
00000140: ce1d b7bd c6e4 9fbd c742 56bd 6b15 cfbc
00000150: a7e7 d63a 2769 0bbe bf74 04bd 37a1 68bd
00000160: 5ad7 69bd 0a19 b93c ca9b b5bd 57ce 4abc
00000170: 6d17 c3bd 45f4 18bd e3ba a9bd 1457 f2bd
00000180: 78df d9bd a882 a1bd 1f50 73bd f96c e7bc
00000190: 8259 e8bd 96d7 a8bd 39cf 553c 06a9 6dbc
000001a0: 9e62 37bd d728 49bd 01f7 2dbd fb3b 4cbd
000001b0: 70f9 75bc 31b1 de3c 07c0 bbbd 58f8 bcbd
000001c0: 3a59 9dbd 9768 a4bd 5a32 d9bc 9866 8ebd
000001d0: 176b 9dbd aa31 d1ba 1b4f 53bd 360e b6bd
000001e0: cc70 b0bd bd19 b4bd ff23 4ebd c2de cfbd
000001f0: fac1 babd a047 eb3b 640c 073d 3479 acbc
00000200: 72d4 a3bd ad0c cdbc 9e3f 93bc e4bf 353c
00000210: 0905 283c 5437 4bbd ab4c eabd e256 00bd
00000220: 492d 0ebd 32cc 44bd d285 9d3c ca16 a2bc
00000230: 2cd8 963c 6df2 193d 90d1 28bd 362d 07bd
00000240: 8859 1dbd b95a 24bc 744b 063d 7a76 ff3b
00000250: 8705 ca3d 77cc 263d d105 ffbc 9183 7abd
00000260: b087 e23b 13e3 393d dd74 7dbc 3857 43bc
00000270: 86dd 34bc dd4a 9a3d 8ff4 463d 26a4 66bd
00000280: 7909 95bd bbe2 f93c 2643 7bbd 419c a8bd
00000290: da0e cbbd 7109 8fbd 814d 84bd bddf 72bc
000002a0: 201c 76bd 9bb6 20bd dddd a8bd 35f3 aa3c
000002b0: 7d7e 71bb e2dd 32bc a6c4 54bd 4311 91bd
000002c0: 63d7 10bd 086a aa3c 7fa8 8ebd 3527 86bd
000002d0: b76b 38bd b30c 65bd 9856 e4ba 43f9 3cbb
000002e0: f51a d8bd c574 143a 846e 9aba 1b3d 20bd
000002f0: ffa7 183a a3f4 0abd 5700 f9bc 29bc 853d
00000300: f513 80bd 3a86 74bd de35 afbd f2eb d0bd
00000310: 6adc 41bd e60d c1bd eb8c b3bd 7256 32bd
00000320: 9c4e f4bd 9dcf edbc 3987 d7bd 1149 2bbd
00000330: 85a3 afbb 638b b1bd e213 f2bd 386a 0ebd
00000340: aca0 0ebd aecf 78bd 0555 6fbc 2b42 81bc
00000350: 8605 25bc 88d1 c4bb af81 85bd 0f9a 41bd
00000360: 77f8 13bd 3990 bebc a62c 6dba ea55 ab3c
00000370: 980b 16bd 1fc4 b9bd f56e d1bd d082 cbbc
00000380: cdf2 4d3d 134f fa3c 1404 093d c679 55bd
00000390: d9d3 7d3c f228 163d 6595 25bd 17e8 813d
000003a0: 1774 41bd 8548 e7bb dc06 e93c 610c 7bbc
000003b0: 64b7 1e3c 61cf 9b3c 0f32 e13c 9810 133d
000003c0: e13b bf3a af27 2e3d 0fc3 69bc b774 273d
000003d0: 7d94 6bbc f38e ce3b 4e9f 0b3d 6bf1 293d
000003e0: 8683 7a3d 67a1 43bd c6fc 9b3d a8c1 bbbd
000003f0: 8cfc 4abd 6a20 6bbd ba16 bcbb aaa7 b33d

fc1.bias f4 [256]
-0.04210842 0.020749344 -0.22313838 -0.016656565 0.22558299 -0.12077906 -0.013477322 0.3487749
0.012823645 -0.065504886 0.33121446 0.20565794 -0.04986855 -0.22538415 -0.0008467186 -0.06026113
-0.04429026 0.017127484 -0.13088794 -0.053588413 -0.03246494 -0.0435279 0.25589234 0.008010509
0.14970045 -0.021040002 0.30790398 -0.07161187 0.030493151 -0.04353549 0.07935075 0.004148069
0.24802388 0.37123665 0.31985107 -0.019663276 0.13301465 0.5324535 -0.007660525 -0.04425066
0.092064224 0.5554273 0.519024 0.43303874 -0.090975255 0.04256846 0.07089243 -0.015605836
0.096303485 -0.0103971725 0.01725942 0.12434878 -0.063572854 0.09779718 0.099046454 0.09975804
0.0796495 -0.18340312 0.5673171 0.41670203 -0.12894942 0.51411635 -0.044227816 -0.00047878196
-0.06583196 -0.017495861 0.66010845 -0.086231135 0.035146926 -0.07061067 0.021387298 0.26493746
-0.05144044 0.15273386 0.65146756 0.36605337 -0.2113851 -0.025070487 0.06682821 -0.07551393
-0.15806216 -0.02814215 -0.022466235 -0.033886585 0.110520385 -0.3997387 -0.036153764 -0.055976573
0.3132565 0.3641045 0.029574128 -0.025863912 -0.03002478 -0.0602409 0.13333732 0.38483724
0.00057313737 0.044493902 -0.07959134 -0.002235716 0.09188557 0.3603146 -0.14915454 -0.048487157
-0.15872401 0.10725743 -0.18108834 -0.26825172 -0.056444965 0.293295 0.023642218 0.35087356
0.21522 -0.011562467 0.021922572 -0.37450948 -0.01492408 -0.05217534 0.5344157 -0.07098496
0.046276018 -0.062375195 -0.080031306 0.23845382 0.0040073036 0.038005654 0.048634246 -0.064686656
-0.059773006 0.2274629 0.6253081 -0.0041388245 0.29073167 -0.018812198 -0.04207662 0.022291437
-0.04484272 -0.011711199 -0.23070711 0.112937845 -0.06456083 0.4352355 0.38687336 0.2834912
0.33715448 0.5840233 -0.104842 0.00012816934 0.20972988 -0.064519346 -0.08369355 -0.3063437
0.31670576 -0.38859174 0.6892609 -0.23113489 -0.022999275 0.4057699 0.5562464 0.08829862
-0.24320947 -0.03674198 -0.027331421 -0.29049096 -0.098285876 -0.008937385 -0.0159939 -0.035588868
-0.030758666 0.015020807 -0.072902516 -0.0113870455 -0.03160773 -0.08312245 0.015314129 -0.0463676
-0.023958145 -0.059476495 -0.008192663 -0.24154632 0.06232289 0.30250093 0.48164016 0.16757268
0.20620714 -0.009079086 -0.35685626 -0.08785445 0.1285089 -0.048680548 0.6680196 -0.035578825
-0.14175674 -0.05665622 -0.045433603 0.14597003 -0.105078585 0.12202906 -0.020846376 -0.21996732
-0.025806047 0.53447455 -0.100730084 -0.06579264 -0.323762 0.28726617 -0.023184627 -0.1798881
0.008756186 -0.03917193 -0.08844459 0.52042365 -0.0380963 -0.067444704 0.021867113 -0.04702428
0.32267302 0.3103629 0.27032965 0.29006404 0.2801303 0.039823666 0.21054094 0.21908587
-0.19523562 0.048429288 0.20438795 0.2906114 -0.034348026 0.106919326 -0.06459654 0.03985039
0.39854437 -0.079169534 0.031006685 -0.0020065706 -0.005101741 0.58440375 0.45157725 -0.18722102
0.1548395 0.07880449 0.6733683 -0.048714045 0.108637884 0.011203568 0.09048815 -0.099602565
-0.52817756 -0.0006701709 -0.1679589 0.0019619132 -0.2738804 0.05815947 0.013165859 -0.13283955
00000000: e179 2cbd 87fa a93c 637e 64be 5973 88bc
00000010: 3aff 663e 035b f7bd fccf 5cbc a092 b23e
00000020: 441a 523c 6d27 86bd f194 a93e ff97 523e
00000030: f742 4cbd 1acb 66be 53f6 5dba 60d4 76bd
00000040: b469 35bd f04e 8c3c 7d07 06be 867f 5bbd
00000050: f5f9 04bd 504a 32bd 5204 833e 833e 033c
00000060: 134b 193e 155c acbc 97a5 9d3e 3ea9 92bd
00000070: c6cc f93c 4552 32bd a582 a23d 86ec 873b
00000080: f9f9 7d3e bb12 be3e 85c3 a33e e114 a1bc
00000090: fe34 083e df4e 083f 2405 fbbb 2e40 35bd
000000a0: 2b8c bc3d 7c30 0e3f c2de 043f 41b7 dd3e
000000b0: 3c51 babd 445c 2e3d 0d30 913d 9faf 7fbc
000000c0: c33a c53d e758 2abc a163 8d3c 93aa fe3d
000000d0: 7c32 82bd e349 c83d ded8 ca3d f14d cc3d
000000e0: 471f a33d 07ce 3bbe b23b 113f f859 d53e
000000f0: 510b 04be 219d 033f 3a28 35bd 0705 fbb9
00000100: e8d2 86bd 7b53 8fbc defc 283f f399 b0bd
00000110: 39f6 0f3d 549c 90bd 6a34 af3c e2a5 873e
00000120: 36b3 52bd 4466 1c3e 94c6 263f 596b bb3e
00000130: 5675 58be 9f60 cdbc 3bdd 883d 0ca7 9abd
00000140: 0cdb 21be 5e8a e6bc 1c0b b8bc a9cc 0abd
00000150: 8358 e23d 8daa ccbe f815 14bd b147 65bd
00000160: 2863 a03e e86b ba3e 7145 f23c 8ee0 d3bc
00000170: 87f6 f5bc 29bf 76bd 9489 083e 6309 c53e
00000180: 993e 163a 3d3f 363d c900 a3bd 1785 12bb
00000190: 802e bc3d 287b b83e f8bb 18be 789a 46bd
000001a0: 8c88 22be c9a9 db3d 396f 39be 4a58 89be
000001b0: d632 67bd c32a 963e 53ad c13c b3a5 b33e
000001c0: a262 5c3e 8070 3dbc f796 b33c b5bf bfbe
000001d0: 2184 74bc cfb5 55bd 78cf 083f 9060 91bd
000001e0: ec8b 3d3d 227d 7fbd 74e7 a3bd 3d2d 743e
000001f0: b34f 833b d1ab 1b3d b434 473d 707a 84bd
00000200: 8ad4 74bd 09ec 683e 3114 203f fa9e 87bb
00000210: c8da 943e 0a1c 9abc 8958 2cbd 889c b63c
00000220: 00ad 37bd 54e0 3fbc 7c3e 6cbe f54b e73d
00000230: 7838 84bd 30d7 de3e 4414 c63e c225 913e
00000240: 839f ac3e 8d82 153f 67b7 d6bd 3265 0639
00000250: 6ec3 563e b822 84bd 8667 abbd 15d9 9cbe
00000260: 4227 a23e 7ff5 c6be 6773 303f a0ae 6cbe
00000270: fa68 bcbc 13c1 cf3e 2a66 0e3f e8d5 b43d
00000280: e70b 79be c27e 16bd 25e6 dfbc 3bbb 94be
00000290: 1b4a c9bd 1c6e 12bc a405 83bc a2c5 11bd
000002a0: 99f9 fbbc d519 763c ea4d 95bd bb90 3abc
000002b0: 1b77 01bd 1a3c aabd 1de8 7a3c f4eb 3dbd
000002c0: df43 c4bc a09d 73bd 853a 06bc eb57 77be
000002d0: 4946 7f3d 67e1 9a3e 8a99 f63e 2c98 2b3e
000002e0: f727 533e 72c0 14bc ddb5 b6be 09ed b3bd
000002f0: d697 033e 4165 47bd 5503 2b3f 1abb 11bd
00000300: ae28 11be 5a10 68bd 9618 3abd 2b79 153e
00000310: 7133 d7bd 5fea f93d 05c6 aabc 1d3f 61be
00000320: 3467 d3bc 53d3 083f 934b cebd 4bbe 86bd
00000330: 22c4 a5be 8d14 933e b0ed bdbc 9634 38be
00000340: 1b76 0f3c bf72 20bd 7022 b5bd 7c3a 053f
00000350: de0a 1cbd 7320 8abd a922 b33c 889c 40bd
00000360: 6635 a53e e3e7 9e3e a668 8a3e 4683 943e
00000370: 3d6d 8f3e 241e 233d 0b98 573e 0c58 603e
00000380: d9eb 47be ca5d 463d 134b 513e 04cb 943e
00000390: 84b0 0cbd 85f8 da3d 314b 84bd 2a3a 233d
000003a0: 020e cc3e a323 a2bd bb01 fe3c ab80 03bb
000003b0: 812c a7bb 7c9b 153f 2235 e73e deb6 3fbe
000003c0: 3f8e 1e3e 4064 a13d dd61 2c3f 6188 47bd
000003d0: 8a7d de3d 2c8f 373c da51 b93d 6efc cbbd
000003e0: a536 07bf 68ae 2fba 6bfd 2bbe 7193 003b
000003f0: 0d3a 8cbe a038 6e3d 9db5 573c 1707 08be

fc2.weight f4 [10, 256]
-0.07417185 -0.27635083 0.075403646 0.015641343 0.16857778 0.15205152 -0.053368784 0.088669054
0.0092538325 0.0038709985 -0.21263282 -0.18520695 -0.0232955 0.08081111 -0.01008599 0.059365567
-0.1685445 0.018022642 -0.20713826 -0.021558197 -0.2558812 -0.016046459 0.09959379 -0.035972305
-0.044636194 -0.15431973 0.11975051 -0.08619388 0.061571855 0.024995094 0.078159325 -0.008834983
-0.063404456 0.20533043 -0.26778355 0.020005144 0.072642766 -0.26802936 -0.1617591 0.0004751598
0.06151698 -0.41069746 -0.082482904 0.043363336 0.024725974 -0.013082105 -0.23181963 0.0089805
0.112796925 -0.028777223 0.13995007 0.0649325 0.00501637 -0.20939015 0.12462963 0.09848548
-0.019162849 0.11163291 0.07782726 -0.25316295 0.08141133 0.09855734 -0.058959756 -0.048574347
-0.05168828 -0.012187915 -0.17991602 -0.0057440465 0.043913245 0.06446879 0.07082289 0.14091188
0.007538139 -0.17297322 0.054000944 -0.014936311 0.0272634 -0.035724003 -0.18887195 -0.0016843765
-0.04139371 0.042183336 0.0050570862 -0.01246131 -0.08754121 0.09042562 0.03376962 -0.0515963
0.14263475 0.09329128 0.0039250515 -0.03710369 -0.021284625 -0.067246646 -0.26593572 -0.2967813
0.057791248 -0.14433697 -0.07671065 0.0066418443 0.10872853 -0.15547077 0.087754644 0.043338962
0.06733352 0.15326297 0.038187675 -0.082372226 -0.114133514 -0.2153073 0.04017214 0.07019154
0.10059161 -0.008194411 -0.064552695 0.07671905 0.05098931 0.020508548 -0.17815436 0.020926937
-0.012425093 0.009309872 -0.0021400703 -0.047128886 -0.06970388 -0.25897464 0.11650387 -0.06089817
-0.017560689 0.22583024 0.1671714 -0.011882222 0.07215781 -0.06695076 -0.08949195 0.03708396
-0.028677896 -0.017483616 0.15764555 -0.052720696 0.04044888 0.07031191 -0.14048287 0.09698833
0.14155775 -0.40677965 -0.031200578 0.07079358 0.05407069 0.007776108 -0.056232393 0.10815852
-0.31160966 0.04268509 -0.27714 0.11489216 0.035996653 -0.20051913 -0.04847903 0.13348588
-0.1822001 0.03491105 -0.04893733 0.004448535 0.19533998 0.04495425 -0.012138703 -0.04799035
0.062705785 0.047213387 -0.052782886 -0.04385084 -0.24900772 -0.12902571 -0.0223774 -0.040102568
0.0106472755 0.13838248 -0.037031595 0.16621587 -0.07669456 0.059612907 0.1089958 -0.38061914
0.014611766 0.097112834 0.08372455 -0.1204122 -0.13921577 0.017941978 -0.26762754 -0.003226283
0.091049336 0.10940091 0.027417228 -0.040688954 0.091291904 0.07762654 0.07437036 0.124178104
-0.048582245 -0.20646104 -0.08510329 -0.11672231 0.111773714 -0.1157068 -0.046229713 0.06731516
-0.01972981 -0.089080065 -0.1307824 0.047264367 -0.039551456 -0.040521 -0.019650513 0.045815177
-0.34019312 0.25534227 -0.099416964 0.053909067 0.102012195 -0.2449329 -0.15894537 -0.048864864
0.007166393 -0.112524524 -0.12231726 0.06725779 0.036994684 0.13007051 0.0060154614 0.11412905
-0.015752293 -0.050064046 0.009803555 -0.020126117 -0.05643516 -0.074530356 -0.18804955 -0.0030516027
-0.029476443 -0.3074855 -0.1794909 0.0988877 0.16057356 0.036966268 0.12712303 0.006725756
0.0345427 -0.0046463655 0.11214111 0.025238 0.10055146 -0.03742814 0.07753521 0.042083915
00000000: 69e7 97bd db7d 8dbe 3a6d 9a3d 4622 803c
00000010: a79f 2c3e 65b3 1b3e 3a99 5abd 1f98 b53d
00000020: 639d 173c 94b0 7d3b 6bbc 59be e4a6 3dbe
00000030: 34d6 bebc 4c80 a53d b53f 25bc 4f29 733d
00000040: ee96 2cbe 38a4 933c 0d1c 54be d19a b0bc
00000050: dc02 83be dd73 83bc d4f7 cb3d b257 13bd
00000060: 71d4 36bd fe05 1ebe c13f f53d 6b86 b0bd
00000070: c532 7c3d 83c2 cc3c ff11 a03d 9bc0 10bc
00000080: 32da 81bd 2442 523e ed1a 89be d4e1 a33c
00000090: bbc5 943d 253b 89be 2da4 25be de1e f939
000000a0: 3bf9 7b3d f046 d2be ccec a8bd c19d 313d
000000b0: 208e ca3c 5356 56bc 2062 6dbe f222 133c
000000c0: 1302 e73d 36be ebbc 124f 0f3e 55fb 843d
000000d0: 5d60 a43b 5f6a 56be d23d ff3d c1b2 c93d
000000e0: 68fb 9cbc cc9f e43d e663 9f3d 939e 81be
000000f0: fcba a63d 6ed8 c93d c97f 71bd e5f5 46bd
00000100: 17b7 53bd d2af 47bc e83b 38be 8e38 bcbb
00000110: 60de 333d 3708 843d 970b 913d 344b 103e
00000120: 7e02 f73b e41f 31be 1830 5d3d 6eb7 74bc
00000130: 7e57 df3c 5553 12bd a667 41be 4cc6 dcba
00000140: 738c 29bd 6fc8 2c3d eab5 a53b 862a 4cbc
00000150: ce48 b3bd 1131 b93d 0352 0a3d a456 53bd
00000160: d80e 123e 800f bf3d b89d 803b 0afa 17bd
00000170: 185d aebc 9cb8 89bd ba28 88be b8f3 97be
00000180: 84b6 6c3d 12cd 13be 791a 9dbd d4a3 d93b
00000190: 10ad de3d bb33 1fbe b5b8 b33d 3284 313d
000001a0: 28e6 893d f8f0 1c3e ae6a 1c3d c5b2 a8bd
000001b0: d5be e9bd 8479 5cbe 8b8b 243d 95c0 8f3d
000001c0: f902 ce3d da41 06bc 3434 84bd e11e 9d3d
000001d0: 2bda 503d 8b01 a83c 196e 36be f86e ab3c
000001e0: 9e92 4bbc 6f88 183c 6c40 0cbb 380a 41bd
000001f0: e8c0 8ebd 5398 84be 9599 ee3d 5c70 79bd
00000200: 6fdb 8fbc 0b40 673e fb2e 2b3e a7ad 42bc
00000210: 79c7 933d 7b1d 89bd 8e47 b7bd 5ae5 173d
00000220: e8ed eabc cd39 8fbc d66d 213e a8f1 57bd
00000230: baad 253d b1ff 8f3d beda 0fbe d1a1 c63d
00000240: 84f4 103e 6c45 d0be 5b98 ffbc 39fc 903d
00000250: 3a79 5d3d b9ce fe3b f053 66bd 3782 dd3d
00000260: 4d8b 9fbe 90d6 2e3d 4be5 8dbe 954c eb3d
00000270: 3a71 133d e354 4dbe f391 46bd 86b0 083e
00000280: aa92 3abe e4fe 0e3d 8272 48bd 04c5 913b
00000290: 3407 483e f321 383d 69e1 46bc 8791 44bd
000002a0: e46b 803d d362 413d de32 58bd f09c 33bd
000002b0: e1fb 7ebe 511f 04be cf50 b7bc 9742 24bd
000002c0: e971 2e3c 23b4 0d3e 71ae 17bd 7e34 2a3e
000002d0: 0a12 9dbd aa2c 743d 3139 df3d 83e0 c2be
000002e0: 3066 6f3c 18e3 c63d c777 ab3d ac9a f6bd
000002f0: 948e 0ebe 0efb 923c 7a06 89be 0c70 53bb
00000300: 1378 ba3d 960d e03d 189a e03c 76a9 26bd
00000310: 40f7 ba3d aafa 9e3d 7d4f 983d 1751 fe3d
00000320: 2dfe 46bd 866a 53be a24a aebd 1b0c efbd
00000330: 9ee9 e43d b0f7 ecbd 5e5b 3dbd 88dc 893d
00000340: 69a0 a1bc 9c6f b6bd d2eb 05be 4898 413d
00000350: b500 22bd 59f9 25bd 1dfa a0bc b2a8 3b3d
00000360: cb2d aebe 39bc 823e 1f9b cbbd c1cf 5c3d
00000370: c5eb d03d b1cf 7abe 93c2 22be 8626 48bd
00000380: 10d4 ea3b 4273 e6bd 7981 fabd 74be 893d
00000390: bd87 173d 3431 053e 591d c53b 7ebc e93d
000003a0: f40a 81bc f50f 4dbd 179f 203c 87df a4bc
000003b0: 8e28 67bd 5fa3 98bd 1090 40be 66fd 47bb
000003c0: 9578 f1bc bd6e 9dbe 76cc 37be a285 ca3d
000003d0: 656d 243e f169 173d 8a2c 023e bb63 dc3b
000003e0: a57c 0d3d 8a40 98bb 3daa e53d ecbf ce3c
000003f0: eded cd3d 404e 19bd c8ca 9e3d 2f60 2c3d

fc2.bias f4 [10]
-0.4574134 -0.31068012 -0.093052834 0.17866507 0.40339437 -0.12518837 0.2759952 -0.14613047
0.0258303 0.2405321
00000000: 1732 eabe 7711 9fbe 7c92 bebd faf3 363e
00000010: b589 ce3e 6131 00be 3e4f 8d3e 3aa3 15be
00000020: 119a d33c 0c4e 763e
